Model: "model_12"_________________________________________________________________Layer (type)                 Output Shape              Param #   =================================================================input_13 (InputLayer)        [(None, 32, 32, 3)]       0         _________________________________________________________________conv2d_70 (Conv2D)           (None, 32, 32, 12)        336       _________________________________________________________________max_pooling2d_29 (MaxPooling (None, 16, 16, 12)        0         _________________________________________________________________conv2d_71 (Conv2D)           (None, 16, 16, 8)         1544      _________________________________________________________________max_pooling2d_30 (MaxPooling (None, 3, 3, 8)           0         _________________________________________________________________conv2d_72 (Conv2D)           (None, 3, 3, 8)           1032      _________________________________________________________________up_sampling2d_29 (UpSampling (None, 18, 18, 8)         0         _________________________________________________________________conv2d_73 (Conv2D)           (None, 16, 16, 12)        876       _________________________________________________________________up_sampling2d_30 (UpSampling (None, 32, 32, 12)        0         _________________________________________________________________conv2d_74 (Conv2D)           (None, 32, 32, 3)         327       =================================================================Total params: 4,115Trainable params: 4,115Non-trainable params: 0_________________________________________________________________Epoch 1/10400/400 [==============================] - 20s 49ms/step - loss: 0.0402 - val_loss: 0.0322Epoch 2/10400/400 [==============================] - 20s 51ms/step - loss: 0.0309 - val_l
…
