﻿Model: "model_10"_________________________________________________________________Layer (type)                 Output Shape              Param #   =================================================================input_11 (InputLayer)        [(None, 28, 28, 1)]       0         _________________________________________________________________conv2d_60 (Conv2D)           (None, 28, 28, 10)        100       _________________________________________________________________max_pooling2d_25 (MaxPooling (None, 14, 14, 10)        0         _________________________________________________________________conv2d_61 (Conv2D)           (None, 14, 14, 6)         546       _________________________________________________________________max_pooling2d_26 (MaxPooling (None, 4, 4, 6)           0         _________________________________________________________________conv2d_62 (Conv2D)           (None, 4, 4, 6)           330       _________________________________________________________________up_sampling2d_25 (UpSampling (None, 16, 16, 6)         0         _________________________________________________________________conv2d_63 (Conv2D)           (None, 14, 14, 10)        550       _________________________________________________________________up_sampling2d_26 (UpSampling (None, 28, 28, 10)        0         _________________________________________________________________conv2d_64 (Conv2D)           (None, 28, 28, 1)         91        =================================================================Total params: 1,617Trainable params: 1,617Non-trainable params: 0_________________________________________________________________Epoch 1/10480/480 [==============================] - 19s 39ms/step - loss: 0.0543 - val_loss: 0.0457Epoch 2/10480/480 [==============================] - 18s 38ms/step - loss: 0.0424 - val_
…
